----------------------------------------------------------------
        Layer (type)               Output Shape         Param #
================================================================
            Conv2d-1         [-1, 16, 320, 320]              48
       BatchNorm2d-2         [-1, 16, 320, 320]              32
              SiLU-3         [-1, 16, 320, 320]               0
              SiLU-4         [-1, 16, 320, 320]               0
              SiLU-5         [-1, 16, 320, 320]               0
              SiLU-6         [-1, 16, 320, 320]               0
              SiLU-7         [-1, 16, 320, 320]               0
              SiLU-8         [-1, 16, 320, 320]               0
              SiLU-9         [-1, 16, 320, 320]               0
             SiLU-10         [-1, 16, 320, 320]               0
             SiLU-11         [-1, 16, 320, 320]               0
             SiLU-12         [-1, 16, 320, 320]               0
             SiLU-13         [-1, 16, 320, 320]               0
             SiLU-14         [-1, 16, 320, 320]               0
             SiLU-15         [-1, 16, 320, 320]               0
             SiLU-16         [-1, 16, 320, 320]               0
             SiLU-17         [-1, 16, 320, 320]               0
             SiLU-18         [-1, 16, 320, 320]               0
             SiLU-19         [-1, 16, 320, 320]               0
             SiLU-20         [-1, 16, 320, 320]               0
             SiLU-21         [-1, 16, 320, 320]               0
             SiLU-22         [-1, 16, 320, 320]               0
             SiLU-23         [-1, 16, 320, 320]               0
             SiLU-24         [-1, 16, 320, 320]               0
             SiLU-25         [-1, 16, 320, 320]               0
             SiLU-26         [-1, 16, 320, 320]               0
             SiLU-27         [-1, 16, 320, 320]               0
             SiLU-28         [-1, 16, 320, 320]               0
             SiLU-29         [-1, 16, 320, 320]               0
             SiLU-30         [-1, 16, 320, 320]               0
             SiLU-31         [-1, 16, 320, 320]               0
             SiLU-32         [-1, 16, 320, 320]               0
             Conv-33         [-1, 16, 320, 320]               0
           Conv2d-34         [-1, 32, 160, 160]             512
      BatchNorm2d-35         [-1, 32, 160, 160]              64
             SiLU-36         [-1, 32, 160, 160]               0
             SiLU-37         [-1, 32, 160, 160]               0
             SiLU-38         [-1, 32, 160, 160]               0
             SiLU-39         [-1, 32, 160, 160]               0
             SiLU-40         [-1, 32, 160, 160]               0
             SiLU-41         [-1, 32, 160, 160]               0
             SiLU-42         [-1, 32, 160, 160]               0
             SiLU-43         [-1, 32, 160, 160]               0
             SiLU-44         [-1, 32, 160, 160]               0
             SiLU-45         [-1, 32, 160, 160]               0
             SiLU-46         [-1, 32, 160, 160]               0
             SiLU-47         [-1, 32, 160, 160]               0
             SiLU-48         [-1, 32, 160, 160]               0
             SiLU-49         [-1, 32, 160, 160]               0
             SiLU-50         [-1, 32, 160, 160]               0
             SiLU-51         [-1, 32, 160, 160]               0
             SiLU-52         [-1, 32, 160, 160]               0
             SiLU-53         [-1, 32, 160, 160]               0
             SiLU-54         [-1, 32, 160, 160]               0
             SiLU-55         [-1, 32, 160, 160]               0
             SiLU-56         [-1, 32, 160, 160]               0
             SiLU-57         [-1, 32, 160, 160]               0
             SiLU-58         [-1, 32, 160, 160]               0
             SiLU-59         [-1, 32, 160, 160]               0
             SiLU-60         [-1, 32, 160, 160]               0
             SiLU-61         [-1, 32, 160, 160]               0
             SiLU-62         [-1, 32, 160, 160]               0
             SiLU-63         [-1, 32, 160, 160]               0
             SiLU-64         [-1, 32, 160, 160]               0
             SiLU-65         [-1, 32, 160, 160]               0
             Conv-66         [-1, 32, 160, 160]               0
           Conv2d-67         [-1, 32, 160, 160]           1,024
      BatchNorm2d-68         [-1, 32, 160, 160]              64
             SiLU-69         [-1, 32, 160, 160]               0
             SiLU-70         [-1, 32, 160, 160]               0
             SiLU-71         [-1, 32, 160, 160]               0
             SiLU-72         [-1, 32, 160, 160]               0
             SiLU-73         [-1, 32, 160, 160]               0
             SiLU-74         [-1, 32, 160, 160]               0
             SiLU-75         [-1, 32, 160, 160]               0
             SiLU-76         [-1, 32, 160, 160]               0
             SiLU-77         [-1, 32, 160, 160]               0
             SiLU-78         [-1, 32, 160, 160]               0
             SiLU-79         [-1, 32, 160, 160]               0
             SiLU-80         [-1, 32, 160, 160]               0
             SiLU-81         [-1, 32, 160, 160]               0
             SiLU-82         [-1, 32, 160, 160]               0
             SiLU-83         [-1, 32, 160, 160]               0
             SiLU-84         [-1, 32, 160, 160]               0
             SiLU-85         [-1, 32, 160, 160]               0
             SiLU-86         [-1, 32, 160, 160]               0
             SiLU-87         [-1, 32, 160, 160]               0
             SiLU-88         [-1, 32, 160, 160]               0
             SiLU-89         [-1, 32, 160, 160]               0
             SiLU-90         [-1, 32, 160, 160]               0
             SiLU-91         [-1, 32, 160, 160]               0
             SiLU-92         [-1, 32, 160, 160]               0
             SiLU-93         [-1, 32, 160, 160]               0
             SiLU-94         [-1, 32, 160, 160]               0
             SiLU-95         [-1, 32, 160, 160]               0
             SiLU-96         [-1, 32, 160, 160]               0
             SiLU-97         [-1, 32, 160, 160]               0
             SiLU-98         [-1, 32, 160, 160]               0
             Conv-99         [-1, 32, 160, 160]               0
          Conv2d-100          [-1, 8, 160, 160]           1,152
     BatchNorm2d-101          [-1, 8, 160, 160]              16
            SiLU-102          [-1, 8, 160, 160]               0
            SiLU-103          [-1, 8, 160, 160]               0
            SiLU-104          [-1, 8, 160, 160]               0
            SiLU-105          [-1, 8, 160, 160]               0
            SiLU-106          [-1, 8, 160, 160]               0
            SiLU-107          [-1, 8, 160, 160]               0
            SiLU-108          [-1, 8, 160, 160]               0
            SiLU-109          [-1, 8, 160, 160]               0
            SiLU-110          [-1, 8, 160, 160]               0
            SiLU-111          [-1, 8, 160, 160]               0
            SiLU-112          [-1, 8, 160, 160]               0
            SiLU-113          [-1, 8, 160, 160]               0
            SiLU-114          [-1, 8, 160, 160]               0
            SiLU-115          [-1, 8, 160, 160]               0
            SiLU-116          [-1, 8, 160, 160]               0
            SiLU-117          [-1, 8, 160, 160]               0
            SiLU-118          [-1, 8, 160, 160]               0
            SiLU-119          [-1, 8, 160, 160]               0
            SiLU-120          [-1, 8, 160, 160]               0
            SiLU-121          [-1, 8, 160, 160]               0
            SiLU-122          [-1, 8, 160, 160]               0
            SiLU-123          [-1, 8, 160, 160]               0
            SiLU-124          [-1, 8, 160, 160]               0
            SiLU-125          [-1, 8, 160, 160]               0
            SiLU-126          [-1, 8, 160, 160]               0
            SiLU-127          [-1, 8, 160, 160]               0
            SiLU-128          [-1, 8, 160, 160]               0
            SiLU-129          [-1, 8, 160, 160]               0
            SiLU-130          [-1, 8, 160, 160]               0
            SiLU-131          [-1, 8, 160, 160]               0
            Conv-132          [-1, 8, 160, 160]               0
          Conv2d-133         [-1, 16, 160, 160]           1,152
     BatchNorm2d-134         [-1, 16, 160, 160]              32
            SiLU-135         [-1, 16, 160, 160]               0
            SiLU-136         [-1, 16, 160, 160]               0
            SiLU-137         [-1, 16, 160, 160]               0
            SiLU-138         [-1, 16, 160, 160]               0
            SiLU-139         [-1, 16, 160, 160]               0
            SiLU-140         [-1, 16, 160, 160]               0
            SiLU-141         [-1, 16, 160, 160]               0
            SiLU-142         [-1, 16, 160, 160]               0
            SiLU-143         [-1, 16, 160, 160]               0
            SiLU-144         [-1, 16, 160, 160]               0
            SiLU-145         [-1, 16, 160, 160]               0
            SiLU-146         [-1, 16, 160, 160]               0
            SiLU-147         [-1, 16, 160, 160]               0
            SiLU-148         [-1, 16, 160, 160]               0
            SiLU-149         [-1, 16, 160, 160]               0
            SiLU-150         [-1, 16, 160, 160]               0
            SiLU-151         [-1, 16, 160, 160]               0
            SiLU-152         [-1, 16, 160, 160]               0
            SiLU-153         [-1, 16, 160, 160]               0
            SiLU-154         [-1, 16, 160, 160]               0
            SiLU-155         [-1, 16, 160, 160]               0
            SiLU-156         [-1, 16, 160, 160]               0
            SiLU-157         [-1, 16, 160, 160]               0
            SiLU-158         [-1, 16, 160, 160]               0
            SiLU-159         [-1, 16, 160, 160]               0
            SiLU-160         [-1, 16, 160, 160]               0
            SiLU-161         [-1, 16, 160, 160]               0
            SiLU-162         [-1, 16, 160, 160]               0
            SiLU-163         [-1, 16, 160, 160]               0
            SiLU-164         [-1, 16, 160, 160]               0
            Conv-165         [-1, 16, 160, 160]               0
      Bottleneck-166         [-1, 16, 160, 160]               0
          Conv2d-167         [-1, 32, 160, 160]           1,536
     BatchNorm2d-168         [-1, 32, 160, 160]              64
            SiLU-169         [-1, 32, 160, 160]               0
            SiLU-170         [-1, 32, 160, 160]               0
            SiLU-171         [-1, 32, 160, 160]               0
            SiLU-172         [-1, 32, 160, 160]               0
            SiLU-173         [-1, 32, 160, 160]               0
            SiLU-174         [-1, 32, 160, 160]               0
            SiLU-175         [-1, 32, 160, 160]               0
            SiLU-176         [-1, 32, 160, 160]               0
            SiLU-177         [-1, 32, 160, 160]               0
            SiLU-178         [-1, 32, 160, 160]               0
            SiLU-179         [-1, 32, 160, 160]               0
            SiLU-180         [-1, 32, 160, 160]               0
            SiLU-181         [-1, 32, 160, 160]               0
            SiLU-182         [-1, 32, 160, 160]               0
            SiLU-183         [-1, 32, 160, 160]               0
            SiLU-184         [-1, 32, 160, 160]               0
            SiLU-185         [-1, 32, 160, 160]               0
            SiLU-186         [-1, 32, 160, 160]               0
            SiLU-187         [-1, 32, 160, 160]               0
            SiLU-188         [-1, 32, 160, 160]               0
            SiLU-189         [-1, 32, 160, 160]               0
            SiLU-190         [-1, 32, 160, 160]               0
            SiLU-191         [-1, 32, 160, 160]               0
            SiLU-192         [-1, 32, 160, 160]               0
            SiLU-193         [-1, 32, 160, 160]               0
            SiLU-194         [-1, 32, 160, 160]               0
            SiLU-195         [-1, 32, 160, 160]               0
            SiLU-196         [-1, 32, 160, 160]               0
            SiLU-197         [-1, 32, 160, 160]               0
            SiLU-198         [-1, 32, 160, 160]               0
            Conv-199         [-1, 32, 160, 160]               0
            C3k2-200         [-1, 32, 160, 160]               0
          Conv2d-201           [-1, 64, 80, 80]           2,048
     BatchNorm2d-202           [-1, 64, 80, 80]             128
            SiLU-203           [-1, 64, 80, 80]               0
            SiLU-204           [-1, 64, 80, 80]               0
            SiLU-205           [-1, 64, 80, 80]               0
            SiLU-206           [-1, 64, 80, 80]               0
            SiLU-207           [-1, 64, 80, 80]               0
            SiLU-208           [-1, 64, 80, 80]               0
            SiLU-209           [-1, 64, 80, 80]               0
            SiLU-210           [-1, 64, 80, 80]               0
            SiLU-211           [-1, 64, 80, 80]               0
            SiLU-212           [-1, 64, 80, 80]               0
            SiLU-213           [-1, 64, 80, 80]               0
            SiLU-214           [-1, 64, 80, 80]               0
            SiLU-215           [-1, 64, 80, 80]               0
            SiLU-216           [-1, 64, 80, 80]               0
            SiLU-217           [-1, 64, 80, 80]               0
            SiLU-218           [-1, 64, 80, 80]               0
            SiLU-219           [-1, 64, 80, 80]               0
            SiLU-220           [-1, 64, 80, 80]               0
            SiLU-221           [-1, 64, 80, 80]               0
            SiLU-222           [-1, 64, 80, 80]               0
            SiLU-223           [-1, 64, 80, 80]               0
            SiLU-224           [-1, 64, 80, 80]               0
            SiLU-225           [-1, 64, 80, 80]               0
            SiLU-226           [-1, 64, 80, 80]               0
            SiLU-227           [-1, 64, 80, 80]               0
            SiLU-228           [-1, 64, 80, 80]               0
            SiLU-229           [-1, 64, 80, 80]               0
            SiLU-230           [-1, 64, 80, 80]               0
            SiLU-231           [-1, 64, 80, 80]               0
            SiLU-232           [-1, 64, 80, 80]               0
            Conv-233           [-1, 64, 80, 80]               0
          Conv2d-234           [-1, 64, 80, 80]           4,096
     BatchNorm2d-235           [-1, 64, 80, 80]             128
            SiLU-236           [-1, 64, 80, 80]               0
            SiLU-237           [-1, 64, 80, 80]               0
            SiLU-238           [-1, 64, 80, 80]               0
            SiLU-239           [-1, 64, 80, 80]               0
            SiLU-240           [-1, 64, 80, 80]               0
            SiLU-241           [-1, 64, 80, 80]               0
            SiLU-242           [-1, 64, 80, 80]               0
            SiLU-243           [-1, 64, 80, 80]               0
            SiLU-244           [-1, 64, 80, 80]               0
            SiLU-245           [-1, 64, 80, 80]               0
            SiLU-246           [-1, 64, 80, 80]               0
            SiLU-247           [-1, 64, 80, 80]               0
            SiLU-248           [-1, 64, 80, 80]               0
            SiLU-249           [-1, 64, 80, 80]               0
            SiLU-250           [-1, 64, 80, 80]               0
            SiLU-251           [-1, 64, 80, 80]               0
            SiLU-252           [-1, 64, 80, 80]               0
            SiLU-253           [-1, 64, 80, 80]               0
            SiLU-254           [-1, 64, 80, 80]               0
            SiLU-255           [-1, 64, 80, 80]               0
            SiLU-256           [-1, 64, 80, 80]               0
            SiLU-257           [-1, 64, 80, 80]               0
            SiLU-258           [-1, 64, 80, 80]               0
            SiLU-259           [-1, 64, 80, 80]               0
            SiLU-260           [-1, 64, 80, 80]               0
            SiLU-261           [-1, 64, 80, 80]               0
            SiLU-262           [-1, 64, 80, 80]               0
            SiLU-263           [-1, 64, 80, 80]               0
            SiLU-264           [-1, 64, 80, 80]               0
            SiLU-265           [-1, 64, 80, 80]               0
            Conv-266           [-1, 64, 80, 80]               0
          Conv2d-267           [-1, 16, 80, 80]             512
     BatchNorm2d-268           [-1, 16, 80, 80]              32
            SiLU-269           [-1, 16, 80, 80]               0
            SiLU-270           [-1, 16, 80, 80]               0
            SiLU-271           [-1, 16, 80, 80]               0
            SiLU-272           [-1, 16, 80, 80]               0
            SiLU-273           [-1, 16, 80, 80]               0
            SiLU-274           [-1, 16, 80, 80]               0
            SiLU-275           [-1, 16, 80, 80]               0
            SiLU-276           [-1, 16, 80, 80]               0
            SiLU-277           [-1, 16, 80, 80]               0
            SiLU-278           [-1, 16, 80, 80]               0
            SiLU-279           [-1, 16, 80, 80]               0
            SiLU-280           [-1, 16, 80, 80]               0
            SiLU-281           [-1, 16, 80, 80]               0
            SiLU-282           [-1, 16, 80, 80]               0
            SiLU-283           [-1, 16, 80, 80]               0
            SiLU-284           [-1, 16, 80, 80]               0
            SiLU-285           [-1, 16, 80, 80]               0
            SiLU-286           [-1, 16, 80, 80]               0
            SiLU-287           [-1, 16, 80, 80]               0
            SiLU-288           [-1, 16, 80, 80]               0
            SiLU-289           [-1, 16, 80, 80]               0
            SiLU-290           [-1, 16, 80, 80]               0
            SiLU-291           [-1, 16, 80, 80]               0
            SiLU-292           [-1, 16, 80, 80]               0
            SiLU-293           [-1, 16, 80, 80]               0
            SiLU-294           [-1, 16, 80, 80]               0
            SiLU-295           [-1, 16, 80, 80]               0
            SiLU-296           [-1, 16, 80, 80]               0
            SiLU-297           [-1, 16, 80, 80]               0
            SiLU-298           [-1, 16, 80, 80]               0
            Conv-299           [-1, 16, 80, 80]               0
          Conv2d-300           [-1, 16, 80, 80]           2,304
     BatchNorm2d-301           [-1, 16, 80, 80]              32
            SiLU-302           [-1, 16, 80, 80]               0
            SiLU-303           [-1, 16, 80, 80]               0
            SiLU-304           [-1, 16, 80, 80]               0
            SiLU-305           [-1, 16, 80, 80]               0
            SiLU-306           [-1, 16, 80, 80]               0
            SiLU-307           [-1, 16, 80, 80]               0
            SiLU-308           [-1, 16, 80, 80]               0
            SiLU-309           [-1, 16, 80, 80]               0
            SiLU-310           [-1, 16, 80, 80]               0
            SiLU-311           [-1, 16, 80, 80]               0
            SiLU-312           [-1, 16, 80, 80]               0
            SiLU-313           [-1, 16, 80, 80]               0
            SiLU-314           [-1, 16, 80, 80]               0
            SiLU-315           [-1, 16, 80, 80]               0
            SiLU-316           [-1, 16, 80, 80]               0
            SiLU-317           [-1, 16, 80, 80]               0
            SiLU-318           [-1, 16, 80, 80]               0
            SiLU-319           [-1, 16, 80, 80]               0
            SiLU-320           [-1, 16, 80, 80]               0
            SiLU-321           [-1, 16, 80, 80]               0
            SiLU-322           [-1, 16, 80, 80]               0
            SiLU-323           [-1, 16, 80, 80]               0
            SiLU-324           [-1, 16, 80, 80]               0
            SiLU-325           [-1, 16, 80, 80]               0
            SiLU-326           [-1, 16, 80, 80]               0
            SiLU-327           [-1, 16, 80, 80]               0
            SiLU-328           [-1, 16, 80, 80]               0
            SiLU-329           [-1, 16, 80, 80]               0
            SiLU-330           [-1, 16, 80, 80]               0
            SiLU-331           [-1, 16, 80, 80]               0
            Conv-332           [-1, 16, 80, 80]               0
          Conv2d-333           [-1, 16, 80, 80]           2,304
     BatchNorm2d-334           [-1, 16, 80, 80]              32
            SiLU-335           [-1, 16, 80, 80]               0
            SiLU-336           [-1, 16, 80, 80]               0
            SiLU-337           [-1, 16, 80, 80]               0
            SiLU-338           [-1, 16, 80, 80]               0
            SiLU-339           [-1, 16, 80, 80]               0
            SiLU-340           [-1, 16, 80, 80]               0
            SiLU-341           [-1, 16, 80, 80]               0
            SiLU-342           [-1, 16, 80, 80]               0
            SiLU-343           [-1, 16, 80, 80]               0
            SiLU-344           [-1, 16, 80, 80]               0
            SiLU-345           [-1, 16, 80, 80]               0
            SiLU-346           [-1, 16, 80, 80]               0
            SiLU-347           [-1, 16, 80, 80]               0
            SiLU-348           [-1, 16, 80, 80]               0
            SiLU-349           [-1, 16, 80, 80]               0
            SiLU-350           [-1, 16, 80, 80]               0
            SiLU-351           [-1, 16, 80, 80]               0
            SiLU-352           [-1, 16, 80, 80]               0
            SiLU-353           [-1, 16, 80, 80]               0
            SiLU-354           [-1, 16, 80, 80]               0
            SiLU-355           [-1, 16, 80, 80]               0
            SiLU-356           [-1, 16, 80, 80]               0
            SiLU-357           [-1, 16, 80, 80]               0
            SiLU-358           [-1, 16, 80, 80]               0
            SiLU-359           [-1, 16, 80, 80]               0
            SiLU-360           [-1, 16, 80, 80]               0
            SiLU-361           [-1, 16, 80, 80]               0
            SiLU-362           [-1, 16, 80, 80]               0
            SiLU-363           [-1, 16, 80, 80]               0
            SiLU-364           [-1, 16, 80, 80]               0
            Conv-365           [-1, 16, 80, 80]               0
      Bottleneck-366           [-1, 16, 80, 80]               0
          Conv2d-367           [-1, 16, 80, 80]           2,304
     BatchNorm2d-368           [-1, 16, 80, 80]              32
            SiLU-369           [-1, 16, 80, 80]               0
            SiLU-370           [-1, 16, 80, 80]               0
            SiLU-371           [-1, 16, 80, 80]               0
            SiLU-372           [-1, 16, 80, 80]               0
            SiLU-373           [-1, 16, 80, 80]               0
            SiLU-374           [-1, 16, 80, 80]               0
            SiLU-375           [-1, 16, 80, 80]               0
            SiLU-376           [-1, 16, 80, 80]               0
            SiLU-377           [-1, 16, 80, 80]               0
            SiLU-378           [-1, 16, 80, 80]               0
            SiLU-379           [-1, 16, 80, 80]               0
            SiLU-380           [-1, 16, 80, 80]               0
            SiLU-381           [-1, 16, 80, 80]               0
            SiLU-382           [-1, 16, 80, 80]               0
            SiLU-383           [-1, 16, 80, 80]               0
            SiLU-384           [-1, 16, 80, 80]               0
            SiLU-385           [-1, 16, 80, 80]               0
            SiLU-386           [-1, 16, 80, 80]               0
            SiLU-387           [-1, 16, 80, 80]               0
            SiLU-388           [-1, 16, 80, 80]               0
            SiLU-389           [-1, 16, 80, 80]               0
            SiLU-390           [-1, 16, 80, 80]               0
            SiLU-391           [-1, 16, 80, 80]               0
            SiLU-392           [-1, 16, 80, 80]               0
            SiLU-393           [-1, 16, 80, 80]               0
            SiLU-394           [-1, 16, 80, 80]               0
            SiLU-395           [-1, 16, 80, 80]               0
            SiLU-396           [-1, 16, 80, 80]               0
            SiLU-397           [-1, 16, 80, 80]               0
            SiLU-398           [-1, 16, 80, 80]               0
            Conv-399           [-1, 16, 80, 80]               0
          Conv2d-400           [-1, 16, 80, 80]           2,304
     BatchNorm2d-401           [-1, 16, 80, 80]              32
            SiLU-402           [-1, 16, 80, 80]               0
            SiLU-403           [-1, 16, 80, 80]               0
            SiLU-404           [-1, 16, 80, 80]               0
            SiLU-405           [-1, 16, 80, 80]               0
            SiLU-406           [-1, 16, 80, 80]               0
            SiLU-407           [-1, 16, 80, 80]               0
            SiLU-408           [-1, 16, 80, 80]               0
            SiLU-409           [-1, 16, 80, 80]               0
            SiLU-410           [-1, 16, 80, 80]               0
            SiLU-411           [-1, 16, 80, 80]               0
            SiLU-412           [-1, 16, 80, 80]               0
            SiLU-413           [-1, 16, 80, 80]               0
            SiLU-414           [-1, 16, 80, 80]               0
            SiLU-415           [-1, 16, 80, 80]               0
            SiLU-416           [-1, 16, 80, 80]               0
            SiLU-417           [-1, 16, 80, 80]               0
            SiLU-418           [-1, 16, 80, 80]               0
            SiLU-419           [-1, 16, 80, 80]               0
            SiLU-420           [-1, 16, 80, 80]               0
            SiLU-421           [-1, 16, 80, 80]               0
            SiLU-422           [-1, 16, 80, 80]               0
            SiLU-423           [-1, 16, 80, 80]               0
            SiLU-424           [-1, 16, 80, 80]               0
            SiLU-425           [-1, 16, 80, 80]               0
            SiLU-426           [-1, 16, 80, 80]               0
            SiLU-427           [-1, 16, 80, 80]               0
            SiLU-428           [-1, 16, 80, 80]               0
            SiLU-429           [-1, 16, 80, 80]               0
            SiLU-430           [-1, 16, 80, 80]               0
            SiLU-431           [-1, 16, 80, 80]               0
            Conv-432           [-1, 16, 80, 80]               0
      Bottleneck-433           [-1, 16, 80, 80]               0
          Conv2d-434           [-1, 16, 80, 80]             512
     BatchNorm2d-435           [-1, 16, 80, 80]              32
            SiLU-436           [-1, 16, 80, 80]               0
            SiLU-437           [-1, 16, 80, 80]               0
            SiLU-438           [-1, 16, 80, 80]               0
            SiLU-439           [-1, 16, 80, 80]               0
            SiLU-440           [-1, 16, 80, 80]               0
            SiLU-441           [-1, 16, 80, 80]               0
            SiLU-442           [-1, 16, 80, 80]               0
            SiLU-443           [-1, 16, 80, 80]               0
            SiLU-444           [-1, 16, 80, 80]               0
            SiLU-445           [-1, 16, 80, 80]               0
            SiLU-446           [-1, 16, 80, 80]               0
            SiLU-447           [-1, 16, 80, 80]               0
            SiLU-448           [-1, 16, 80, 80]               0
            SiLU-449           [-1, 16, 80, 80]               0
            SiLU-450           [-1, 16, 80, 80]               0
            SiLU-451           [-1, 16, 80, 80]               0
            SiLU-452           [-1, 16, 80, 80]               0
            SiLU-453           [-1, 16, 80, 80]               0
            SiLU-454           [-1, 16, 80, 80]               0
            SiLU-455           [-1, 16, 80, 80]               0
            SiLU-456           [-1, 16, 80, 80]               0
            SiLU-457           [-1, 16, 80, 80]               0
            SiLU-458           [-1, 16, 80, 80]               0
            SiLU-459           [-1, 16, 80, 80]               0
            SiLU-460           [-1, 16, 80, 80]               0
            SiLU-461           [-1, 16, 80, 80]               0
            SiLU-462           [-1, 16, 80, 80]               0
            SiLU-463           [-1, 16, 80, 80]               0
            SiLU-464           [-1, 16, 80, 80]               0
            SiLU-465           [-1, 16, 80, 80]               0
            Conv-466           [-1, 16, 80, 80]               0
          Conv2d-467           [-1, 32, 80, 80]           1,024
     BatchNorm2d-468           [-1, 32, 80, 80]              64
            SiLU-469           [-1, 32, 80, 80]               0
            SiLU-470           [-1, 32, 80, 80]               0
            SiLU-471           [-1, 32, 80, 80]               0
            SiLU-472           [-1, 32, 80, 80]               0
            SiLU-473           [-1, 32, 80, 80]               0
            SiLU-474           [-1, 32, 80, 80]               0
            SiLU-475           [-1, 32, 80, 80]               0
            SiLU-476           [-1, 32, 80, 80]               0
            SiLU-477           [-1, 32, 80, 80]               0
            SiLU-478           [-1, 32, 80, 80]               0
            SiLU-479           [-1, 32, 80, 80]               0
            SiLU-480           [-1, 32, 80, 80]               0
            SiLU-481           [-1, 32, 80, 80]               0
            SiLU-482           [-1, 32, 80, 80]               0
            SiLU-483           [-1, 32, 80, 80]               0
            SiLU-484           [-1, 32, 80, 80]               0
            SiLU-485           [-1, 32, 80, 80]               0
            SiLU-486           [-1, 32, 80, 80]               0
            SiLU-487           [-1, 32, 80, 80]               0
            SiLU-488           [-1, 32, 80, 80]               0
            SiLU-489           [-1, 32, 80, 80]               0
            SiLU-490           [-1, 32, 80, 80]               0
            SiLU-491           [-1, 32, 80, 80]               0
            SiLU-492           [-1, 32, 80, 80]               0
            SiLU-493           [-1, 32, 80, 80]               0
            SiLU-494           [-1, 32, 80, 80]               0
            SiLU-495           [-1, 32, 80, 80]               0
            SiLU-496           [-1, 32, 80, 80]               0
            SiLU-497           [-1, 32, 80, 80]               0
            SiLU-498           [-1, 32, 80, 80]               0
            Conv-499           [-1, 32, 80, 80]               0
             C3k-500           [-1, 32, 80, 80]               0
          Conv2d-501           [-1, 64, 80, 80]           6,144
     BatchNorm2d-502           [-1, 64, 80, 80]             128
            SiLU-503           [-1, 64, 80, 80]               0
            SiLU-504           [-1, 64, 80, 80]               0
            SiLU-505           [-1, 64, 80, 80]               0
            SiLU-506           [-1, 64, 80, 80]               0
            SiLU-507           [-1, 64, 80, 80]               0
            SiLU-508           [-1, 64, 80, 80]               0
            SiLU-509           [-1, 64, 80, 80]               0
            SiLU-510           [-1, 64, 80, 80]               0
            SiLU-511           [-1, 64, 80, 80]               0
            SiLU-512           [-1, 64, 80, 80]               0
            SiLU-513           [-1, 64, 80, 80]               0
            SiLU-514           [-1, 64, 80, 80]               0
            SiLU-515           [-1, 64, 80, 80]               0
            SiLU-516           [-1, 64, 80, 80]               0
            SiLU-517           [-1, 64, 80, 80]               0
            SiLU-518           [-1, 64, 80, 80]               0
            SiLU-519           [-1, 64, 80, 80]               0
            SiLU-520           [-1, 64, 80, 80]               0
            SiLU-521           [-1, 64, 80, 80]               0
            SiLU-522           [-1, 64, 80, 80]               0
            SiLU-523           [-1, 64, 80, 80]               0
            SiLU-524           [-1, 64, 80, 80]               0
            SiLU-525           [-1, 64, 80, 80]               0
            SiLU-526           [-1, 64, 80, 80]               0
            SiLU-527           [-1, 64, 80, 80]               0
            SiLU-528           [-1, 64, 80, 80]               0
            SiLU-529           [-1, 64, 80, 80]               0
            SiLU-530           [-1, 64, 80, 80]               0
            SiLU-531           [-1, 64, 80, 80]               0
            SiLU-532           [-1, 64, 80, 80]               0
            Conv-533           [-1, 64, 80, 80]               0
            C3k2-534           [-1, 64, 80, 80]               0
          Conv2d-535          [-1, 128, 40, 40]           8,192
     BatchNorm2d-536          [-1, 128, 40, 40]             256
            SiLU-537          [-1, 128, 40, 40]               0
            SiLU-538          [-1, 128, 40, 40]               0
            SiLU-539          [-1, 128, 40, 40]               0
            SiLU-540          [-1, 128, 40, 40]               0
            SiLU-541          [-1, 128, 40, 40]               0
            SiLU-542          [-1, 128, 40, 40]               0
            SiLU-543          [-1, 128, 40, 40]               0
            SiLU-544          [-1, 128, 40, 40]               0
            SiLU-545          [-1, 128, 40, 40]               0
            SiLU-546          [-1, 128, 40, 40]               0
            SiLU-547          [-1, 128, 40, 40]               0
            SiLU-548          [-1, 128, 40, 40]               0
            SiLU-549          [-1, 128, 40, 40]               0
            SiLU-550          [-1, 128, 40, 40]               0
            SiLU-551          [-1, 128, 40, 40]               0
            SiLU-552          [-1, 128, 40, 40]               0
            SiLU-553          [-1, 128, 40, 40]               0
            SiLU-554          [-1, 128, 40, 40]               0
            SiLU-555          [-1, 128, 40, 40]               0
            SiLU-556          [-1, 128, 40, 40]               0
            SiLU-557          [-1, 128, 40, 40]               0
            SiLU-558          [-1, 128, 40, 40]               0
            SiLU-559          [-1, 128, 40, 40]               0
            SiLU-560          [-1, 128, 40, 40]               0
            SiLU-561          [-1, 128, 40, 40]               0
            SiLU-562          [-1, 128, 40, 40]               0
            SiLU-563          [-1, 128, 40, 40]               0
            SiLU-564          [-1, 128, 40, 40]               0
            SiLU-565          [-1, 128, 40, 40]               0
            SiLU-566          [-1, 128, 40, 40]               0
            Conv-567          [-1, 128, 40, 40]               0
          Conv2d-568          [-1, 128, 40, 40]          16,384
     BatchNorm2d-569          [-1, 128, 40, 40]             256
            SiLU-570          [-1, 128, 40, 40]               0
            SiLU-571          [-1, 128, 40, 40]               0
            SiLU-572          [-1, 128, 40, 40]               0
            SiLU-573          [-1, 128, 40, 40]               0
            SiLU-574          [-1, 128, 40, 40]               0
            SiLU-575          [-1, 128, 40, 40]               0
            SiLU-576          [-1, 128, 40, 40]               0
            SiLU-577          [-1, 128, 40, 40]               0
            SiLU-578          [-1, 128, 40, 40]               0
            SiLU-579          [-1, 128, 40, 40]               0
            SiLU-580          [-1, 128, 40, 40]               0
            SiLU-581          [-1, 128, 40, 40]               0
            SiLU-582          [-1, 128, 40, 40]               0
            SiLU-583          [-1, 128, 40, 40]               0
            SiLU-584          [-1, 128, 40, 40]               0
            SiLU-585          [-1, 128, 40, 40]               0
            SiLU-586          [-1, 128, 40, 40]               0
            SiLU-587          [-1, 128, 40, 40]               0
            SiLU-588          [-1, 128, 40, 40]               0
            SiLU-589          [-1, 128, 40, 40]               0
            SiLU-590          [-1, 128, 40, 40]               0
            SiLU-591          [-1, 128, 40, 40]               0
            SiLU-592          [-1, 128, 40, 40]               0
            SiLU-593          [-1, 128, 40, 40]               0
            SiLU-594          [-1, 128, 40, 40]               0
            SiLU-595          [-1, 128, 40, 40]               0
            SiLU-596          [-1, 128, 40, 40]               0
            SiLU-597          [-1, 128, 40, 40]               0
            SiLU-598          [-1, 128, 40, 40]               0
            SiLU-599          [-1, 128, 40, 40]               0
            Conv-600          [-1, 128, 40, 40]               0
          Conv2d-601           [-1, 32, 40, 40]           2,048
     BatchNorm2d-602           [-1, 32, 40, 40]              64
            SiLU-603           [-1, 32, 40, 40]               0
            SiLU-604           [-1, 32, 40, 40]               0
            SiLU-605           [-1, 32, 40, 40]               0
            SiLU-606           [-1, 32, 40, 40]               0
            SiLU-607           [-1, 32, 40, 40]               0
            SiLU-608           [-1, 32, 40, 40]               0
            SiLU-609           [-1, 32, 40, 40]               0
            SiLU-610           [-1, 32, 40, 40]               0
            SiLU-611           [-1, 32, 40, 40]               0
            SiLU-612           [-1, 32, 40, 40]               0
            SiLU-613           [-1, 32, 40, 40]               0
            SiLU-614           [-1, 32, 40, 40]               0
            SiLU-615           [-1, 32, 40, 40]               0
            SiLU-616           [-1, 32, 40, 40]               0
            SiLU-617           [-1, 32, 40, 40]               0
            SiLU-618           [-1, 32, 40, 40]               0
            SiLU-619           [-1, 32, 40, 40]               0
            SiLU-620           [-1, 32, 40, 40]               0
            SiLU-621           [-1, 32, 40, 40]               0
            SiLU-622           [-1, 32, 40, 40]               0
            SiLU-623           [-1, 32, 40, 40]               0
            SiLU-624           [-1, 32, 40, 40]               0
            SiLU-625           [-1, 32, 40, 40]               0
            SiLU-626           [-1, 32, 40, 40]               0
            SiLU-627           [-1, 32, 40, 40]               0
            SiLU-628           [-1, 32, 40, 40]               0
            SiLU-629           [-1, 32, 40, 40]               0
            SiLU-630           [-1, 32, 40, 40]               0
            SiLU-631           [-1, 32, 40, 40]               0
            SiLU-632           [-1, 32, 40, 40]               0
            Conv-633           [-1, 32, 40, 40]               0
          Conv2d-634           [-1, 32, 40, 40]           9,216
     BatchNorm2d-635           [-1, 32, 40, 40]              64
            SiLU-636           [-1, 32, 40, 40]               0
            SiLU-637           [-1, 32, 40, 40]               0
            SiLU-638           [-1, 32, 40, 40]               0
            SiLU-639           [-1, 32, 40, 40]               0
            SiLU-640           [-1, 32, 40, 40]               0
            SiLU-641           [-1, 32, 40, 40]               0
            SiLU-642           [-1, 32, 40, 40]               0
            SiLU-643           [-1, 32, 40, 40]               0
            SiLU-644           [-1, 32, 40, 40]               0
            SiLU-645           [-1, 32, 40, 40]               0
            SiLU-646           [-1, 32, 40, 40]               0
            SiLU-647           [-1, 32, 40, 40]               0
            SiLU-648           [-1, 32, 40, 40]               0
            SiLU-649           [-1, 32, 40, 40]               0
            SiLU-650           [-1, 32, 40, 40]               0
            SiLU-651           [-1, 32, 40, 40]               0
            SiLU-652           [-1, 32, 40, 40]               0
            SiLU-653           [-1, 32, 40, 40]               0
            SiLU-654           [-1, 32, 40, 40]               0
            SiLU-655           [-1, 32, 40, 40]               0
            SiLU-656           [-1, 32, 40, 40]               0
            SiLU-657           [-1, 32, 40, 40]               0
            SiLU-658           [-1, 32, 40, 40]               0
            SiLU-659           [-1, 32, 40, 40]               0
            SiLU-660           [-1, 32, 40, 40]               0
            SiLU-661           [-1, 32, 40, 40]               0
            SiLU-662           [-1, 32, 40, 40]               0
            SiLU-663           [-1, 32, 40, 40]               0
            SiLU-664           [-1, 32, 40, 40]               0
            SiLU-665           [-1, 32, 40, 40]               0
            Conv-666           [-1, 32, 40, 40]               0
          Conv2d-667           [-1, 32, 40, 40]           9,216
     BatchNorm2d-668           [-1, 32, 40, 40]              64
            SiLU-669           [-1, 32, 40, 40]               0
            SiLU-670           [-1, 32, 40, 40]               0
            SiLU-671           [-1, 32, 40, 40]               0
            SiLU-672           [-1, 32, 40, 40]               0
            SiLU-673           [-1, 32, 40, 40]               0
            SiLU-674           [-1, 32, 40, 40]               0
            SiLU-675           [-1, 32, 40, 40]               0
            SiLU-676           [-1, 32, 40, 40]               0
            SiLU-677           [-1, 32, 40, 40]               0
            SiLU-678           [-1, 32, 40, 40]               0
            SiLU-679           [-1, 32, 40, 40]               0
            SiLU-680           [-1, 32, 40, 40]               0
            SiLU-681           [-1, 32, 40, 40]               0
            SiLU-682           [-1, 32, 40, 40]               0
            SiLU-683           [-1, 32, 40, 40]               0
            SiLU-684           [-1, 32, 40, 40]               0
            SiLU-685           [-1, 32, 40, 40]               0
            SiLU-686           [-1, 32, 40, 40]               0
            SiLU-687           [-1, 32, 40, 40]               0
            SiLU-688           [-1, 32, 40, 40]               0
            SiLU-689           [-1, 32, 40, 40]               0
            SiLU-690           [-1, 32, 40, 40]               0
            SiLU-691           [-1, 32, 40, 40]               0
            SiLU-692           [-1, 32, 40, 40]               0
            SiLU-693           [-1, 32, 40, 40]               0
            SiLU-694           [-1, 32, 40, 40]               0
            SiLU-695           [-1, 32, 40, 40]               0
            SiLU-696           [-1, 32, 40, 40]               0
            SiLU-697           [-1, 32, 40, 40]               0
            SiLU-698           [-1, 32, 40, 40]               0
            Conv-699           [-1, 32, 40, 40]               0
      Bottleneck-700           [-1, 32, 40, 40]               0
          Conv2d-701           [-1, 32, 40, 40]           9,216
     BatchNorm2d-702           [-1, 32, 40, 40]              64
            SiLU-703           [-1, 32, 40, 40]               0
            SiLU-704           [-1, 32, 40, 40]               0
            SiLU-705           [-1, 32, 40, 40]               0
            SiLU-706           [-1, 32, 40, 40]               0
            SiLU-707           [-1, 32, 40, 40]               0
            SiLU-708           [-1, 32, 40, 40]               0
            SiLU-709           [-1, 32, 40, 40]               0
            SiLU-710           [-1, 32, 40, 40]               0
            SiLU-711           [-1, 32, 40, 40]               0
            SiLU-712           [-1, 32, 40, 40]               0
            SiLU-713           [-1, 32, 40, 40]               0
            SiLU-714           [-1, 32, 40, 40]               0
            SiLU-715           [-1, 32, 40, 40]               0
            SiLU-716           [-1, 32, 40, 40]               0
            SiLU-717           [-1, 32, 40, 40]               0
            SiLU-718           [-1, 32, 40, 40]               0
            SiLU-719           [-1, 32, 40, 40]               0
            SiLU-720           [-1, 32, 40, 40]               0
            SiLU-721           [-1, 32, 40, 40]               0
            SiLU-722           [-1, 32, 40, 40]               0
            SiLU-723           [-1, 32, 40, 40]               0
            SiLU-724           [-1, 32, 40, 40]               0
            SiLU-725           [-1, 32, 40, 40]               0
            SiLU-726           [-1, 32, 40, 40]               0
            SiLU-727           [-1, 32, 40, 40]               0
            SiLU-728           [-1, 32, 40, 40]               0
            SiLU-729           [-1, 32, 40, 40]               0
            SiLU-730           [-1, 32, 40, 40]               0
            SiLU-731           [-1, 32, 40, 40]               0
            SiLU-732           [-1, 32, 40, 40]               0
            Conv-733           [-1, 32, 40, 40]               0
          Conv2d-734           [-1, 32, 40, 40]           9,216
     BatchNorm2d-735           [-1, 32, 40, 40]              64
            SiLU-736           [-1, 32, 40, 40]               0
            SiLU-737           [-1, 32, 40, 40]               0
            SiLU-738           [-1, 32, 40, 40]               0
            SiLU-739           [-1, 32, 40, 40]               0
            SiLU-740           [-1, 32, 40, 40]               0
            SiLU-741           [-1, 32, 40, 40]               0
            SiLU-742           [-1, 32, 40, 40]               0
            SiLU-743           [-1, 32, 40, 40]               0
            SiLU-744           [-1, 32, 40, 40]               0
            SiLU-745           [-1, 32, 40, 40]               0
            SiLU-746           [-1, 32, 40, 40]               0
            SiLU-747           [-1, 32, 40, 40]               0
            SiLU-748           [-1, 32, 40, 40]               0
            SiLU-749           [-1, 32, 40, 40]               0
            SiLU-750           [-1, 32, 40, 40]               0
            SiLU-751           [-1, 32, 40, 40]               0
            SiLU-752           [-1, 32, 40, 40]               0
            SiLU-753           [-1, 32, 40, 40]               0
            SiLU-754           [-1, 32, 40, 40]               0
            SiLU-755           [-1, 32, 40, 40]               0
            SiLU-756           [-1, 32, 40, 40]               0
            SiLU-757           [-1, 32, 40, 40]               0
            SiLU-758           [-1, 32, 40, 40]               0
            SiLU-759           [-1, 32, 40, 40]               0
            SiLU-760           [-1, 32, 40, 40]               0
            SiLU-761           [-1, 32, 40, 40]               0
            SiLU-762           [-1, 32, 40, 40]               0
            SiLU-763           [-1, 32, 40, 40]               0
            SiLU-764           [-1, 32, 40, 40]               0
            SiLU-765           [-1, 32, 40, 40]               0
            Conv-766           [-1, 32, 40, 40]               0
      Bottleneck-767           [-1, 32, 40, 40]               0
          Conv2d-768           [-1, 32, 40, 40]           2,048
     BatchNorm2d-769           [-1, 32, 40, 40]              64
            SiLU-770           [-1, 32, 40, 40]               0
            SiLU-771           [-1, 32, 40, 40]               0
            SiLU-772           [-1, 32, 40, 40]               0
            SiLU-773           [-1, 32, 40, 40]               0
            SiLU-774           [-1, 32, 40, 40]               0
            SiLU-775           [-1, 32, 40, 40]               0
            SiLU-776           [-1, 32, 40, 40]               0
            SiLU-777           [-1, 32, 40, 40]               0
            SiLU-778           [-1, 32, 40, 40]               0
            SiLU-779           [-1, 32, 40, 40]               0
            SiLU-780           [-1, 32, 40, 40]               0
            SiLU-781           [-1, 32, 40, 40]               0
            SiLU-782           [-1, 32, 40, 40]               0
            SiLU-783           [-1, 32, 40, 40]               0
            SiLU-784           [-1, 32, 40, 40]               0
            SiLU-785           [-1, 32, 40, 40]               0
            SiLU-786           [-1, 32, 40, 40]               0
            SiLU-787           [-1, 32, 40, 40]               0
            SiLU-788           [-1, 32, 40, 40]               0
            SiLU-789           [-1, 32, 40, 40]               0
            SiLU-790           [-1, 32, 40, 40]               0
            SiLU-791           [-1, 32, 40, 40]               0
            SiLU-792           [-1, 32, 40, 40]               0
            SiLU-793           [-1, 32, 40, 40]               0
            SiLU-794           [-1, 32, 40, 40]               0
            SiLU-795           [-1, 32, 40, 40]               0
            SiLU-796           [-1, 32, 40, 40]               0
            SiLU-797           [-1, 32, 40, 40]               0
            SiLU-798           [-1, 32, 40, 40]               0
            SiLU-799           [-1, 32, 40, 40]               0
            Conv-800           [-1, 32, 40, 40]               0
          Conv2d-801           [-1, 64, 40, 40]           4,096
     BatchNorm2d-802           [-1, 64, 40, 40]             128
            SiLU-803           [-1, 64, 40, 40]               0
            SiLU-804           [-1, 64, 40, 40]               0
            SiLU-805           [-1, 64, 40, 40]               0
            SiLU-806           [-1, 64, 40, 40]               0
            SiLU-807           [-1, 64, 40, 40]               0
            SiLU-808           [-1, 64, 40, 40]               0
            SiLU-809           [-1, 64, 40, 40]               0
            SiLU-810           [-1, 64, 40, 40]               0
            SiLU-811           [-1, 64, 40, 40]               0
            SiLU-812           [-1, 64, 40, 40]               0
            SiLU-813           [-1, 64, 40, 40]               0
            SiLU-814           [-1, 64, 40, 40]               0
            SiLU-815           [-1, 64, 40, 40]               0
            SiLU-816           [-1, 64, 40, 40]               0
            SiLU-817           [-1, 64, 40, 40]               0
            SiLU-818           [-1, 64, 40, 40]               0
            SiLU-819           [-1, 64, 40, 40]               0
            SiLU-820           [-1, 64, 40, 40]               0
            SiLU-821           [-1, 64, 40, 40]               0
            SiLU-822           [-1, 64, 40, 40]               0
            SiLU-823           [-1, 64, 40, 40]               0
            SiLU-824           [-1, 64, 40, 40]               0
            SiLU-825           [-1, 64, 40, 40]               0
            SiLU-826           [-1, 64, 40, 40]               0
            SiLU-827           [-1, 64, 40, 40]               0
            SiLU-828           [-1, 64, 40, 40]               0
            SiLU-829           [-1, 64, 40, 40]               0
            SiLU-830           [-1, 64, 40, 40]               0
            SiLU-831           [-1, 64, 40, 40]               0
            SiLU-832           [-1, 64, 40, 40]               0
            Conv-833           [-1, 64, 40, 40]               0
             C3k-834           [-1, 64, 40, 40]               0
          Conv2d-835          [-1, 128, 40, 40]          24,576
     BatchNorm2d-836          [-1, 128, 40, 40]             256
            SiLU-837          [-1, 128, 40, 40]               0
            SiLU-838          [-1, 128, 40, 40]               0
            SiLU-839          [-1, 128, 40, 40]               0
            SiLU-840          [-1, 128, 40, 40]               0
            SiLU-841          [-1, 128, 40, 40]               0
            SiLU-842          [-1, 128, 40, 40]               0
            SiLU-843          [-1, 128, 40, 40]               0
            SiLU-844          [-1, 128, 40, 40]               0
            SiLU-845          [-1, 128, 40, 40]               0
            SiLU-846          [-1, 128, 40, 40]               0
            SiLU-847          [-1, 128, 40, 40]               0
            SiLU-848          [-1, 128, 40, 40]               0
            SiLU-849          [-1, 128, 40, 40]               0
            SiLU-850          [-1, 128, 40, 40]               0
            SiLU-851          [-1, 128, 40, 40]               0
            SiLU-852          [-1, 128, 40, 40]               0
            SiLU-853          [-1, 128, 40, 40]               0
            SiLU-854          [-1, 128, 40, 40]               0
            SiLU-855          [-1, 128, 40, 40]               0
            SiLU-856          [-1, 128, 40, 40]               0
            SiLU-857          [-1, 128, 40, 40]               0
            SiLU-858          [-1, 128, 40, 40]               0
            SiLU-859          [-1, 128, 40, 40]               0
            SiLU-860          [-1, 128, 40, 40]               0
            SiLU-861          [-1, 128, 40, 40]               0
            SiLU-862          [-1, 128, 40, 40]               0
            SiLU-863          [-1, 128, 40, 40]               0
            SiLU-864          [-1, 128, 40, 40]               0
            SiLU-865          [-1, 128, 40, 40]               0
            SiLU-866          [-1, 128, 40, 40]               0
            Conv-867          [-1, 128, 40, 40]               0
            C3k2-868          [-1, 128, 40, 40]               0
          Conv2d-869          [-1, 128, 40, 40]          16,384
     BatchNorm2d-870          [-1, 128, 40, 40]             256
            SiLU-871          [-1, 128, 40, 40]               0
            SiLU-872          [-1, 128, 40, 40]               0
            SiLU-873          [-1, 128, 40, 40]               0
            SiLU-874          [-1, 128, 40, 40]               0
            SiLU-875          [-1, 128, 40, 40]               0
            SiLU-876          [-1, 128, 40, 40]               0
            SiLU-877          [-1, 128, 40, 40]               0
            SiLU-878          [-1, 128, 40, 40]               0
            SiLU-879          [-1, 128, 40, 40]               0
            SiLU-880          [-1, 128, 40, 40]               0
            SiLU-881          [-1, 128, 40, 40]               0
            SiLU-882          [-1, 128, 40, 40]               0
            SiLU-883          [-1, 128, 40, 40]               0
            SiLU-884          [-1, 128, 40, 40]               0
            SiLU-885          [-1, 128, 40, 40]               0
            SiLU-886          [-1, 128, 40, 40]               0
            SiLU-887          [-1, 128, 40, 40]               0
            SiLU-888          [-1, 128, 40, 40]               0
            SiLU-889          [-1, 128, 40, 40]               0
            SiLU-890          [-1, 128, 40, 40]               0
            SiLU-891          [-1, 128, 40, 40]               0
            SiLU-892          [-1, 128, 40, 40]               0
            SiLU-893          [-1, 128, 40, 40]               0
            SiLU-894          [-1, 128, 40, 40]               0
            SiLU-895          [-1, 128, 40, 40]               0
            SiLU-896          [-1, 128, 40, 40]               0
            SiLU-897          [-1, 128, 40, 40]               0
            SiLU-898          [-1, 128, 40, 40]               0
            SiLU-899          [-1, 128, 40, 40]               0
            SiLU-900          [-1, 128, 40, 40]               0
            Conv-901          [-1, 128, 40, 40]               0
          Conv2d-902           [-1, 64, 40, 40]           8,192
     BatchNorm2d-903           [-1, 64, 40, 40]             128
            SiLU-904           [-1, 64, 40, 40]               0
            SiLU-905           [-1, 64, 40, 40]               0
            SiLU-906           [-1, 64, 40, 40]               0
            SiLU-907           [-1, 64, 40, 40]               0
            SiLU-908           [-1, 64, 40, 40]               0
            SiLU-909           [-1, 64, 40, 40]               0
            SiLU-910           [-1, 64, 40, 40]               0
            SiLU-911           [-1, 64, 40, 40]               0
            SiLU-912           [-1, 64, 40, 40]               0
            SiLU-913           [-1, 64, 40, 40]               0
            SiLU-914           [-1, 64, 40, 40]               0
            SiLU-915           [-1, 64, 40, 40]               0
            SiLU-916           [-1, 64, 40, 40]               0
            SiLU-917           [-1, 64, 40, 40]               0
            SiLU-918           [-1, 64, 40, 40]               0
            SiLU-919           [-1, 64, 40, 40]               0
            SiLU-920           [-1, 64, 40, 40]               0
            SiLU-921           [-1, 64, 40, 40]               0
            SiLU-922           [-1, 64, 40, 40]               0
            SiLU-923           [-1, 64, 40, 40]               0
            SiLU-924           [-1, 64, 40, 40]               0
            SiLU-925           [-1, 64, 40, 40]               0
            SiLU-926           [-1, 64, 40, 40]               0
            SiLU-927           [-1, 64, 40, 40]               0
            SiLU-928           [-1, 64, 40, 40]               0
            SiLU-929           [-1, 64, 40, 40]               0
            SiLU-930           [-1, 64, 40, 40]               0
            SiLU-931           [-1, 64, 40, 40]               0
            SiLU-932           [-1, 64, 40, 40]               0
            SiLU-933           [-1, 64, 40, 40]               0
            Conv-934           [-1, 64, 40, 40]               0
        Upsample-935           [-1, 64, 80, 80]               0
          Conv2d-936           [-1, 32, 80, 80]           2,048
     BatchNorm2d-937           [-1, 32, 80, 80]              64
            SiLU-938           [-1, 32, 80, 80]               0
            SiLU-939           [-1, 32, 80, 80]               0
            SiLU-940           [-1, 32, 80, 80]               0
            SiLU-941           [-1, 32, 80, 80]               0
            SiLU-942           [-1, 32, 80, 80]               0
            SiLU-943           [-1, 32, 80, 80]               0
            SiLU-944           [-1, 32, 80, 80]               0
            SiLU-945           [-1, 32, 80, 80]               0
            SiLU-946           [-1, 32, 80, 80]               0
            SiLU-947           [-1, 32, 80, 80]               0
            SiLU-948           [-1, 32, 80, 80]               0
            SiLU-949           [-1, 32, 80, 80]               0
            SiLU-950           [-1, 32, 80, 80]               0
            SiLU-951           [-1, 32, 80, 80]               0
            SiLU-952           [-1, 32, 80, 80]               0
            SiLU-953           [-1, 32, 80, 80]               0
            SiLU-954           [-1, 32, 80, 80]               0
            SiLU-955           [-1, 32, 80, 80]               0
            SiLU-956           [-1, 32, 80, 80]               0
            SiLU-957           [-1, 32, 80, 80]               0
            SiLU-958           [-1, 32, 80, 80]               0
            SiLU-959           [-1, 32, 80, 80]               0
            SiLU-960           [-1, 32, 80, 80]               0
            SiLU-961           [-1, 32, 80, 80]               0
            SiLU-962           [-1, 32, 80, 80]               0
            SiLU-963           [-1, 32, 80, 80]               0
            SiLU-964           [-1, 32, 80, 80]               0
            SiLU-965           [-1, 32, 80, 80]               0
            SiLU-966           [-1, 32, 80, 80]               0
            SiLU-967           [-1, 32, 80, 80]               0
            Conv-968           [-1, 32, 80, 80]               0
        Upsample-969         [-1, 32, 160, 160]               0
        Backbone-970  [[-1, 256, 40, 40], [-1, 128, 80, 80], [-1, 64, 160, 160], [-1, 16, 320, 320], [-1, 32, 160, 160], [-1, 32, 160, 160]]               0
          Conv2d-971         [-1, 1280, 80, 80]         163,840
     BatchNorm2d-972         [-1, 1280, 80, 80]           2,560
            SiLU-973         [-1, 1280, 80, 80]               0
            SiLU-974         [-1, 1280, 80, 80]               0
            SiLU-975         [-1, 1280, 80, 80]               0
            SiLU-976         [-1, 1280, 80, 80]               0
            SiLU-977         [-1, 1280, 80, 80]               0
            SiLU-978         [-1, 1280, 80, 80]               0
            SiLU-979         [-1, 1280, 80, 80]               0
            SiLU-980         [-1, 1280, 80, 80]               0
            SiLU-981         [-1, 1280, 80, 80]               0
            SiLU-982         [-1, 1280, 80, 80]               0
            SiLU-983         [-1, 1280, 80, 80]               0
            SiLU-984         [-1, 1280, 80, 80]               0
            SiLU-985         [-1, 1280, 80, 80]               0
            SiLU-986         [-1, 1280, 80, 80]               0
            SiLU-987         [-1, 1280, 80, 80]               0
            SiLU-988         [-1, 1280, 80, 80]               0
            SiLU-989         [-1, 1280, 80, 80]               0
            SiLU-990         [-1, 1280, 80, 80]               0
            SiLU-991         [-1, 1280, 80, 80]               0
            SiLU-992         [-1, 1280, 80, 80]               0
            SiLU-993         [-1, 1280, 80, 80]               0
            SiLU-994         [-1, 1280, 80, 80]               0
            SiLU-995         [-1, 1280, 80, 80]               0
            SiLU-996         [-1, 1280, 80, 80]               0
            SiLU-997         [-1, 1280, 80, 80]               0
            SiLU-998         [-1, 1280, 80, 80]               0
            SiLU-999         [-1, 1280, 80, 80]               0
           SiLU-1000         [-1, 1280, 80, 80]               0
           SiLU-1001         [-1, 1280, 80, 80]               0
           SiLU-1002         [-1, 1280, 80, 80]               0
           Conv-1003         [-1, 1280, 80, 80]               0
AdaptiveAvgPool2d-1004           [-1, 1280, 1, 1]               0
        Dropout-1005                 [-1, 1280]               0
         Linear-1006                    [-1, 4]           5,124
       Classify-1007                    [-1, 4]               0
================================================================
Total params: 323,972
Trainable params: 323,972
Non-trainable params: 0
----------------------------------------------------------------
Input size (MB): 4.69
Forward/backward pass size (MB): 4178.93
Params size (MB): 1.24
Estimated Total Size (MB): 4184.85
----------------------------------------------------------------
